model.pt (torch, 412891 bytes, 14 tensors)

conv1.weight f4 [16, 6, 3]
0	0x3cc8c83f	0.024509547
1	0x3e82cb04	0.25545514
2	0x3decd4f1	0.11564053
3	0xbe7cc006	-0.24682626
4	0xbba6d1d0	-0.0050909296
5	0xbe2117f6	-0.15731797
6	0xbe53b18a	-0.20673195
7	0xbb985de8	-0.0046498664
8	0xbec8e311	-0.39235738
9	0xbdcd96e2	-0.10038544
10	0xbefcf8a4	-0.49408448
11	0xbe8eac60	-0.27865887
12	0xbe34a549	-0.17641176
13	0xbd8cdcf5	-0.06878082
14	0xbe831c09	-0.25607327
15	0x3ebdd530	0.37076712
16	0x3e6a3a4b	0.228738
17	0xbcfe01d4	-0.031006731
18	0xbe423033	-0.18963699
19	0xbd54fddf	-0.051999923
20	0x3ebbc75d	0.3667554
21	0xbb790291	-0.0037995914
22	0x3d2c6f14	0.04209812
23	0xbd3131d9	-0.04326043
24	0xbb945b83	-0.0045275106
25	0x3ca8471e	0.020541724
26	0xbed6d29e	-0.41957563
27	0xbdd29481	-0.10282231
28	0x3ddcf0fe	0.10788153
29	0x3e653acc	0.2238571
30	0xbe924fd5	-0.28576532
31	0xbdb9324b	-0.09042796
32	0xbe9f73aa	-0.31142932
33	0x3e300a6a	0.17191473
34	0xbec4a2e3	-0.38405523
35	0xbed0e683	-0.40800866
36	0x3d34a2dd	0.04410063
37	0xbd9409fd	-0.072284676
38	0xbde5b080	-0.11215305
39	0x3e5201d0	0.20508504
40	0x3dcdf7f2	0.100570574
41	0xbdf0732d	-0.11740718
42	0x3d88e684	0.06684592
43	0xbe69ec00	-0.22843933
44	0xbee04ff6	-0.43811005
45	0x3ecd19f6	0.4005887
46	0x3df11963	0.1177242
47	0x3e1c66b2	0.1527355
48	0xbeaec5fd	-0.34135428
49	0xbed370e7	-0.41297075
50	0xbe7192e8	-0.23591197
51	0x3dc37f37	0.09545749
52	0x3e226f1b	0.15862696
53	0x3e883f36	0.26610726
54	0x3e4f1346	0.20222196
55	0x3d1711c1	0.036882166
56	0x3d98b611	0.074566014
57	0x3eae2087	0.3400919
58	0xbe6a0e30	-0.22856975
59	0xbed42d97	-0.41441032
60	0xbeac4187	-0.33643743
61	0x3c5157a0	0.012777239
62	0x3d4790ca	0.048722066
63	0xbc9142b8	-0.01773201
64	0x3e125c46	0.14293012
65	0x3e421bb6	0.18955883
66	0x3f2a92de	0.6663035
67	0x3d3e9594	0.046529368
68	0x3e24275e	0.16030642
69	0x3b53e5d9	0.0032333045
70	0x3d2c68e3	0.042092215
71	0x3e6fa187	0.23401462
72	0x3d9517b9	0.07279915
73	0x3e2f5b4c	0.1712467
74	0xbec3c171	-0.38233522
75	0xbd1f7232	-0.038927265
76	0xbed12905	-0.40851608
77	0xbda6bab7	-0.08141082
78	0xbdbc03d9	-0.091804214
79	0xbdb7df3a	-0.08978124
80	0x3d23f855	0.04003175
81	0x3df929a6	0.12166147
82	0xbf1c0df5	-0.60958797
83	0xbec579f3	-0.38569602
84	0x3e2582b2	0.16163138
85	0x3eddd019	0.43322828
86	0x3efefd27	0.49802515
87	0x3eeac4ae	0.4585318
88	0x3e9e413d	0.30909148
89	0xbb9732a1	-0.0046141897
90	0xbdee1444	-0.11624959
91	0x3de18058	0.11010808
92	0xbd1e7594	-0.03868635
93	0xbf0e39b8	-0.5555682
94	0x3d396953	0.04526646
95	0x3e25ce6e	0.16192028
96	0xbe556a27	-0.20841275
97	0x3e256fe4	0.16155964
98	0xbe836bdc	-0.25668228
99	0x3e6c89c1	0.23099424
100	0xbe865443	-0.26236162
101	0x3ec12339	0.37722185
102	0xbe2941a2	-0.16528943
103	0xbce95248	-0.028481618
104	0x3dc54cf9	0.09633822
105	0xbe5a27dd	-0.21304269
106	0xbeae9148	-0.34095216
107	0xbed915b0	-0.4239936
108	0xbeabfc49	-0.33590916
109	0xbc8b265d	-0.016986066
110	0x3e9ac079	0.3022497
111	0xbddda0ed	-0.1082171
112	0xbd6f75d3	-0.058461975
113	0xbdc6da54	-0.097096115
114	0x3e2a2f9f	0.16619729
115	0xbe31c9c5	-0.17362125
116	0x3c921234	0.017830946
117	0x3de9e7a0	0.11421132
118	0x3e0472eb	0.12934463
119	0xbd551b63	-0.05202807
120	0x3dc2fe47	0.09521156
121	0x3f2904be	0.6602286
122	0x3e2d42e1	0.16920044
123	0xbd0ebf66	-0.0348505
124	0x3df776fd	0.12083242
125	0xbde3d9f6	-0.11125557
126	0x3ed23da1	0.41062644
127	0xbe21110a	-0.15729156
128	0xbe43313b	-0.19061749
129	0xbdb419f0	-0.0879401
130	0xbe970c54	-0.29501593
131	0xbe491403	-0.1963654
132	0xbe26d940	-0.16293812
133	0xbd5b05d5	-0.05347236
134	0x3dcee45b	0.10102149
135	0x3e9eceda	0.3101719
136	0xbd80c209	-0.06287009
137	0x3d7e11dc	0.06202875
138	0x3dd5153a	0.10404439
139	0x3ec16247	0.37770292
140	0x3e00a3cf	0.12562488
141	0x3e83b94c	0.25727308
142	0x3e892429	0.267854
143	0x3da64b9e	0.081198916
144	0x3e318205	0.17334755
145	0x3d3caeb3	0.046065044
146	0x3b96c299	0.0046008346
147	0xbaae428b	-0.0013294978
148	0x3d54d698	0.051962465
149	0x3e0371a8	0.12836325
150	0x3e404f93	0.18780355
151	0x3c0c6f36	0.008571437
152	0xbe6ccd83	-0.23125271
153	0x3e34414a	0.17603031
154	0x3ed3d77d	0.41375342
155	0x3f20a93f	0.6275825
156	0x3e7451af	0.23859285
157	0xbdac0594	-0.083995014
158	0x3eb9bdb0	0.36277533
159	0x3d80d9a7	0.06291514
160	0x3d54b900	0.051934242
161	0xbd1109b2	-0.035409637
162	0x3d024bc0	0.031810522
163	0x3d5f79a3	0.05455936
164	0xbd8269ab	-0.06367811
165	0xbf011700	-0.5042572
166	0xbebfe010	-0.37475634
167	0xbf47c0f2	-0.78028786
168	0x3db4a797	0.08821028
169	0x3d2e9bd3	0.042629074
170	0x3e87379d	0.26409617
171	0xbe6978cd	-0.22799988
172	0x3e3702a8	0.17872107
173	0x3ed8d39e	0.4234895
174	0xbe7c7ef3	-0.24657802
175	0xbe931233	-0.28724822
176	0xbe971363	-0.29506978
177	0x3e926f50	0.2860055
178	0x3ed03e1c	0.40672386
179	0x3c2c0cb5	0.0105010765
180	0xbd4250f2	-0.047440477
181	0xbdda4714	-0.10658088
182	0x3eb20cc0	0.34775352
183	0x3d9ab8c2	0.07554771
184	0xbe8fcee2	-0.28087527
185	0x3bb3d7e5	0.005488383
186	0xbefce46f	-0.4939303
187	0xbcc6ff37	-0.024291618
188	0x3dfe4ed6	0.124173805
189	0xbe26b17f	-0.16278647
190	0xbeb64a31	-0.3560348
191	0xbdeff066	-0.11715774
192	0x3bc1ca82	0.0059140334
193	0xbe2a8c47	-0.16655074
194	0x3e27d528	0.16389906
195	0x3dbf2508	0.09333235
196	0xbf0bb210	-0.54568577
197	0xbe55b697	-0.20870434
198	0x3dacbfb1	0.08435
199	0xbdfaf91c	-0.12254545
200	0xbd933dd9	-0.07189531
201	0x3e08eb9e	0.13371131
202	0xbe4adeee	-0.19811603
203	0xbe0c6d58	-0.13713586
204	0x3e057907	0.1303445
205	0xbe833d59	-0.25632742
206	0xbd13da7a	-0.036097027
207	0x3f03211d	0.512224
208	0x3e35532d	0.1770751
209	0xbe03a928	-0.12857497
210	0xbca3d955	-0.020001093
211	0xbe8c820d	-0.2744297
212	0xbd9303e1	-0.07178474
213	0xbbeb3a79	-0.0071786013
214	0xbdbd7be1	-0.09252144
215	0xbde02ace	-0.10945664
216	0x3d78d647	0.060751226
217	0xbcaaade9	-0.02083488
218	0x3dd07997	0.101794414
219	0xbea09c7a	-0.31369382
220	0x3d004952	0.031319924
221	0xbe861b31	-0.2619262
222	0x3e4bca29	0.19901337
223	0x3e7e3e6f	0.24828504
224	0xbd35c862	-0.044380553
225	0xbe214e39	-0.15752496
226	0xbec07e19	-0.37596205
227	0xbf4aefb9	-0.7927204
228	0x3eb2c7d4	0.34918082
229	0x3e8a2d1e	0.26987547
230	0x3de8db5f	0.11369967
231	0x3df25140	0.118319035
232	0x3d9f1e25	0.077694215
233	0x3e2b61cd	0.16736527
234	0xbe496186	-0.19666108
235	0x3ba18716	0.0049294336
236	0xbea74b21	-0.32674506
237	0xbe1714f1	-0.14754082
238	0xbe919edf	-0.28441522
239	0x3e1d625b	0.15369551
240	0xbe8d3e8c	-0.27586782
241	0xbe89e1b0	-0.26929998
242	0x3cd9d0a0	0.026588738
243	0xbeadb870	-0.33929777
244	0x3de3f42a	0.11130555
245	0x3e9844c5	0.29739967
246	0xbda83f53	-0.08215203
247	0xbdb882f7	-0.090093546
248	0xbc861c32	-0.016370866
249	0xbe64a7d5	-0.22329648
250	0xbda781d6	-0.08179061
251	0x3e89b252	0.2689386
252	0x3e3ab557	0.18233238
253	0xbe652db6	-0.22380719
254	0xbd5ed853	-0.05440552
255	0xbe63946d	-0.22224589

conv1.bias f4 [16]
0	0xbd0f7cb6	-0.035031043
1	0xbe7b098d	-0.24515362
2	0xbe8c0f91	-0.27355626
3	0x3f0811b5	0.5315202
4	0xbeb84a60	-0.35994244
5	0xbee461e8	-0.44605947
6	0xbe27a4a7	-0.16371404
7	0xbea6bc93	-0.32565746
8	0xbca3386a	-0.019924361
9	0x3ef0f410	0.47061205
10	0xbe8949e7	-0.26814196
11	0xbf2fc4d9	-0.6865974
12	0x3d8ff44e	0.07029019
13	0x3f0c9796	0.549188
14	0xbc3ba646	-0.011453217
15	0xbed7ed82	-0.42173392

conv2.weight f4 [32, 16, 3]
0	0x3e268f6a	0.16265646
1	0xbd2746cb	-0.040838998
2	0x3e5260c1	0.20544721
3	0x3d2c880d	0.042121936
4	0xbf07bb02	-0.53019726
5	0xbe352395	-0.17689355
6	0xbe7dd3d3	-0.24787836
7	0xbe89ebde	-0.26937765
8	0x3d85d712	0.06535162
9	0xbeacb53c	-0.3373202
10	0xbeaf8e53	-0.34288272
11	0xbe9e4bae	-0.30917114
12	0xbe08a80d	-0.13345356
13	0xbded7a0e	-0.11595546
14	0x3d80ae71	0.06283272
15	0xbeca7f6e	-0.39550346
16	0xbe601f56	-0.21886954
17	0x3e18d6e6	0.14925727
18	0xbe037a3e	-0.128396
19	0xbd59472c	-0.05304639
20	0x3d169f9c	0.03677331
21	0xbe95f4f0	-0.29288435
22	0xbe681dd9	-0.22667636
23	0xbdb04be0	-0.08608222
24	0xbe98d94a	-0.29853278
25	0xbe967665	-0.29387203
26	0xbd8db531	-0.06919325
27	0xbe9b71d7	-0.3036029
28	0xbd2822d7	-0.04104885
29	0xbd8d9413	-0.069130085
30	0x3e0a8525	0.13527353
31	0xbd8c9935	-0.068651594
32	0xbe20ff11	-0.157223
33	0xbcf2edcb	-0.029654404
34	0xbea49bf0	-0.3215022
35	0xbf0bf7a2	-0.5467473
36	0xbea99c32	-0.3312698
37	0xbefbd52f	-0.49186084
38	0xbde1e352	-0.11029686
39	0xbe0ec02e	-0.13940498
40	0x3e156d5e	0.14592502
41	0xbd3ef422	-0.046619542
42	0xbe543dca	-0.20726696
43	0xbeabd5ed	-0.3356165
44	0xbd7d3cef	-0.06182569
45	0x3be007ab	0.0068368516
46	0x3dbff42f	0.09372746
47	0x3e54b2e7	0.20771371
48	0xbe9fd462	-0.31216723
49	0xbe8538ba	-0.2601984
50	0xbd8660d0	-0.06561434
51	0xbe6ad57f	-0.22933005
52	0x3e37a41c	0.17933697
53	0xbd6a809a	-0.05725155
54	0x3d72ee3f	0.05930924
55	0x3ded0ae2	0.11574341
56	0xbcfe9e02	-0.031081203
57	0x3e8fdcf2	0.28098255
58	0xbeecb04e	-0.4622826
59	0x3da115e8	0.078655064
60	0xbe75f4f6	-0.24019226
61	0xbed79b42	-0.4211064
62	0xbecbdda9	-0.3981755
63	0xbea1e4d4	-0.31619895
64	0x389f426e	7.594084e-05
65	0x3dec41e1	0.11536003
66	0xbec55c74	-0.385471
67	0x3ea89a4f	0.32930228
68	0xbd7c2f6c	-0.061568663
69	0xbeb6fe2c	-0.35740793
70	0xbd1e05a0	-0.038579583
71	0xbe71d206	-0.23615274
72	0xbe672237	-0.22571646
73	0xbebd52ba	-0.36977178
74	0xbea1b059	-0.31579855
75	0xbf3726b9	-0.7154346
76	0xbe880771	-0.26568177
77	0xbeb89c22	-0.3605662
78	0x3cf3c3ce	0.029756453
79	0x3e6ed0e0	0.23321867
80	0xbdfc6465	-0.12323836
81	0x3e3b5919	0.18295707
82	0xbe220bb1	-0.15824772
83	0xbe80b5bd	-0.25138655
84	0xbb97a24e	-0.0046275025
85	0xbe22baca	-0.15891567
86	0xbe68ffbb	-0.22753803
87	0xbd55744c	-0.052112862
88	0xbe43160d	-0.1905138
89	0xbdab43c2	-0.08362533
90	0xbe01a9f7	-0.12662493
91	0xbd3174f6	-0.043324433
92	0xbe05ab7d	-0.13053699
93	0x3e4e20e5	0.20129736
94	0x3e41c0d7	0.18921219
95	0x3d504aee	0.05085271
96	0xbe301e6e	-0.17199108
97	0xbce56f19	-0.028007077
98	0x3dd53b9d	0.10411761
99	0xbecb8cb2	-0.3975578
100	0xbe9550dc	-0.29163253
101	0xbbe8e481	-0.007107318
102	0xbe45a0ba	-0.19299594
103	0xbe6fdbf3	-0.23423748
104	0xbea91ca1	-0.33029655
105	0xbd7aacdd	-0.06120001
106	0xbf1f7fc9	-0.6230436
107	0xbebd534e	-0.3697762
108	0x3d85c23e	0.065311894
109	0xbe1c2b0b	-0.15250795
110	0xbdd4ff7a	-0.10400291
111	0xbe37e693	-0.17959051
112	0xbd9fcd7e	-0.078028664
113	0x3e9d14a9	0.30679825
114	0xbe4b4360	-0.1984992
115	0xbd2850a7	-0.04109254
116	0xbda9cbda	-0.08290835
117	0x3e9585b7	0.2920358
118	0xbdf1531a	-0.117834285
119	0xbd9d4e2f	-0.07680928
120	0xbd992def	-0.07479464
121	0xbd62f2ad	-0.055407215
122	0x3e4b0e94	0.1982978
123	0xbec66c38	-0.3875444
124	0xbdbd19b5	-0.09233419
125	0x3e6c094d	0.23050423
126	0x3e9049e5	0.28181377
127	0xbe5d38eb	-0.21603744
128	0x3de130bc	0.109956235
129	0x3d5a7030	0.053329647
130	0x3cdfecba	0.02733456
131	0xbe7f83ce	-0.24952623
132	0xbe485fca	-0.1956779
133	0xbebd1ce6	-0.3693611
134	0xbe59dde5	-0.21276052
135	0x3e3fa66e	0.18715832
136	0xbe57fab6	-0.21091732
137	0xbd51ec01	-0.05125046
138	0xbe60f2b2	-0.21967581
139	0xbe8c339c	-0.27383125
140	0x3da69301	0.081335075
141	0xbdd4276a	-0.1035908
142	0x3e8016b9	0.25017336
143	0x3e09608f	0.1341574
144	0xbd79c569	-0.06097928
145	0x3d5047e0	0.050849795
146	0xbdd908d1	-0.10597385
147	0xbdd0238e	-0.101630315
148	0xbe4b977d	-0.19882007
149	0x3b055f09	0.0020350835
150	0xbe7c8a84	-0.24662215
151	0xbc53afd8	-0.012920342
152	0x3bb762c5	0.005596491
153	0x3b8a12ec	0.0042136814
154	0xbebb47ce	-0.3657822
155	0xbe3b3e12	-0.18285397
156	0x3c104574	0.008805621
157	0xbdadbe05	-0.08483509
158	0x3e84e72d	0.25957623
159	0x3e4e62fd	0.20154949
160	0x3c95ba90	0.018277436
161	0x3dc7f615	0.09763733
162	0xbe7aa201	-0.24475862
163	0xbea1dc9c	-0.31613624
164	0xbcd7ba78	-0.026334032
165	0x3e80e134	0.25171816
166	0xba7c90eb	-0.00096346316
167	0x3e05de01	0.13072969
168	0xbecb6356	-0.39724225
169	0xbe3e4339	-0.18580331
170	0x3cf263ef	0.029588668
171	0xbbf35812	-0.0074262703
172	0xbe885c32	-0.2663284
173	0xbe22d6bc	-0.15902227
174	0x3e21da4d	0.15805931
175	0xbeb835c0	-0.35978508
176	0xbe436902	-0.19083026
177	0xbe627cbe	-0.22117898
178	0xbbf0e7b9	-0.0073518422
179	0x3ea9984b	0.33124003
180	0xbd93fa1a	-0.072254375
181	0xbe8c18bc	-0.2736262
182	0x3cac13db	0.021005562
183	0x3dde55e6	0.108562276
184	0xbe358d4b	-0.1772968
185	0xbce90e81	-0.028449299
186	0xbe7ea31f	-0.24866913
187	0xbec85b4e	-0.3913216
188	0xbe14426b	-0.14478461
189	0xbd399f31	-0.045317832
190	0x3e087794	0.13326865
191	0x3e402ef6	0.18767914
192	0x3e5a913e	0.21344468
193	0xbe701f63	-0.23449473
194	0xbf1449e4	-0.5792525
195	0xbeee6d3b	-0.4656771
196	0xbefcc317	-0.49367592
197	0x3e423694	0.18966132
198	0xbeaafc3c	-0.33395565
199	0xbf41f5f7	-0.7576594
200	0xbe92e13b	-0.28687462
201	0x3e47aecf	0.19500278
202	0x3ab2d235	0.0013642969
203	0xbe635c0e	-0.22203085
204	0xbecbed81	-0.3982964
205	0xbed46eb7	-0.4149072
206	0xbe884f40	-0.26622963
207	0x3e917805	0.2841188
208	0xbe6da822	-0.23208669
209	0x3ce6b22e	0.028161135
210	0x3cd6b0e1	0.02620739
211	0xbe8c78ff	-0.27436063
212	0xbebe17c3	-0.37127504
213	0x3caf6e22	0.02141482
214	0x3d8c0c15	0.06838242
215	0x3dad0809	0.08448798
216	0x3d6c95c9	0.057760034
217	0x3d4f59a0	0.050622582
218	0xbe4106dd	-0.18850274
219	0x3e71a219	0.23596992
220	0x3e96bc7a	0.2944067
221	0x3e0adc74	0.13560659
222	0xbeac1321	-0.33608344
223	0xbe8275c6	-0.2548048
224	0x3dab983a	0.08378644
225	0xbec4b345	-0.38418022
226	0xbe18cd55	-0.14922078
227	0x3e4613c7	0.19343482
228	0x3be694b2	0.007036769
229	0xbe85313e	-0.2601413
230	0x3db57937	0.088610105
231	0x3e017cc0	0.12645245
232	0x3e980e3f	0.2969837
233	0xbde79edf	-0.11309599
234	0xbdc5029c	-0.09619638
235	0xbe1cc526	-0.15309581
236	0xbf277e94	-0.6542752
237	0xbe5a70f3	-0.21332149
238	0xbe898d55	-0.2686564
239	0xbe7a61a6	-0.24451312
240	0xbeb93566	-0.36173552
241	0xbe67268b	-0.22573297
242	0xbe8de511	-0.27713826
243	0xbec5afed	-0.38610783
244	0x3db3377c	0.08750817
245	0xbe95850c	-0.2920307
246	0xbe959e32	-0.29222256
247	0x3dbf0792	0.09327616
248	0xbdabe73b	-0.08393713
249	0xbe04df97	-0.12975918
250	0xbe070cf9	-0.13188542
251	0xbe05011e	-0.12988707
252	0xbdba08da	-0.090837196
253	0xbe4daa7b	-0.20084564
254	0xbe896143	-0.26832017
255	0x3dc59f79	0.096495576

conv2.bias f4 [32]
0	0x3e80c079	0.25146845
1	0xbe5d13c9	-0.21589579
2	0x3daa68a2	0.083207384
3	0xbbfe617b	-0.0077630854
4	0x3cddffdf	0.027099548
5	0xbea51dad	-0.32249203
6	0xbf02fac3	-0.5116388
7	0x3e48ea27	0.19620572
8	0xbe5ce497	-0.21571575
9	0x3ecd6fc0	0.4012432
10	0xbdd423c9	-0.10358388
11	0xbe6ad072	-0.22931078
12	0xbeb6cf37	-0.35704967
13	0xbe084ab3	-0.13309745
14	0xbee6242d	-0.44949475
15	0x3e5b0164	0.21387249
16	0x3e842602	0.25810248
17	0xbe8d5c72	-0.27609593
18	0xbeab07da	-0.33404428
19	0x3deb4977	0.11488622
20	0xbf0b3b7b	-0.54387635
21	0xbe6d9218	-0.23200262
22	0x3d4ae50c	0.049534842
23	0x3e3ab7a4	0.18234116
24	0x3bedcd88	0.0072571672
25	0xbe876fb4	-0.2645241
26	0x3bdc0b29	0.0067151976
27	0xbeb11130	-0.34583426
28	0xbde4ac3e	-0.11165665
29	0xbda5894f	-0.0808283
30	0xbe59839c	-0.21241611
31	0x3ea27caa	0.31735736

conv3.weight f4 [64, 32, 3]
0	0x3e8c84b5	0.27444997
1	0x3d4140e0	0.04718101
2	0xbd1f3ef5	-0.0388784
3	0xbdc9c3df	-0.098518126
4	0xbc976fe1	-0.018485965
5	0x3e937543	0.288004
6	0x3e0fd288	0.14045155
7	0x3e5824ed	0.21107836
8	0x3ccb9437	0.024850948
9	0x3de2063e	0.11036347
10	0x3db81fb5	0.08990423
11	0xbe0c86b3	-0.13723259
12	0xbd13caa5	-0.03608193
13	0x3d53d42a	0.051716007
14	0x3e84b94a	0.25922614
15	0xbe050c2f	-0.12992929
16	0xbbf636ce	-0.0075138574
17	0xbe6d62a1	-0.23182155
18	0xbf3d2054	-0.73877454
19	0x3d825a9b	0.06364938
20	0x3e3aee3c	0.18254942
21	0x3cceaf33	0.025230026
22	0x3dfaa9a7	0.1223939
23	0xba6d9db5	-0.00090643327
24	0xbd1cc054	-0.038269356
25	0xbb472be0	-0.0030391142
26	0x3d830f62	0.063994184
27	0xbdd63b68	-0.104605496
28	0xbe79035d	-0.24317689
29	0xbe948d2f	-0.29013965
30	0x3e1743a2	0.14771894
31	0x3e3548f7	0.17703615
32	0x3d9dccb7	0.07705062
33	0xbeac7cf2	-0.33689076
34	0xbea6302e	-0.32458633
35	0xbd548784	-0.05188705
36	0xbd6cf110	-0.057847083
37	0xbeceb0a8	-0.40369153
38	0xbeda5d04	-0.4264909
39	0xbdbf36ed	-0.09336648
40	0x3cc18fe1	0.023628177
41	0xbdfefa4f	-0.12450086
42	0xbea65745	-0.32488456
43	0xbe5cb94b	-0.21555059
44	0x3cf8682a	0.030323107
45	0x3dc7c2de	0.09753965
46	0x3db7a7fa	0.08967586
47	0x3e740afe	0.23832318
48	0xbea29914	-0.31757414
49	0xbdba3dd1	-0.09093822
50	0x3ee67308	0.45009637
51	0x3dc5e741	0.09663249
52	0x3e1b7f9f	0.15185402
53	0x3e4db3ad	0.20088072
54	0xbe3c33a9	-0.18379082
55	0xbd314458	-0.04327807
56	0x3cc73b2f	0.024320213
57	0xbde451c6	-0.111484095
58	0xbe0a9289	-0.13532461
59	0x3dc558e6	0.09636097
60	0x3e077044	0.1322642
61	0x3d4aa18d	0.049470473
62	0xbe81c016	-0.25341862
63	0xbe82146e	-0.25406212
64	0xbe582e11	-0.21111323
65	0xbea5d743	-0.32390794
66	0xbecd64c9	-0.40115955
67	0x3be04ffe	0.0068454733
68	0x3e0736d3	0.13204508
69	0x3e1a89a3	0.15091567
70	0x3dddcf6d	0.10830579
71	0x3db4d395	0.088294186
72	0xbd81b35b	-0.063330375
73	0xbb9e5597	-0.0048319804
74	0xbe1f700e	-0.15570089
75	0xbceacb87	-0.028661503
76	0x3e98d2f0	0.29848433
77	0x3e6eb226	0.23310146
78	0xbe368804	-0.17825323
79	0xbe79e2e8	-0.24402964
80	0xbebd6f1a	-0.36998826
81	0x3f1934c1	0.5984612
82	0x3e0d631a	0.13807335
83	0x3d9fa3f4	0.077949435
84	0xbf221a1e	-0.633211
85	0xbe8076f8	-0.25090766
86	0xbe68c7f6	-0.22732529
87	0xbe869681	-0.262867
88	0x3d1ab9b8	0.03777477
89	0xbe8f2f89	-0.27965954
90	0xbe801dcc	-0.25022733
91	0xbe96167b	-0.29314026
92	0xbe8379b5	-0.25678793
93	0x3ec51eb4	0.38499987
94	0xbe533b0a	-0.2062799
95	0xbeb5e5a2	-0.35526758
96	0xbeac1e03	-0.33616647
97	0xbe452851	-0.1925366
98	0xbe9a4198	-0.3012817
99	0x3e21179a	0.1573166
100	0xbde16847	-0.110062174
101	0xbe4dee36	-0.20110402
102	0xbeb445fb	-0.3520964
103	0xbe355782	-0.17709163
104	0xbe74c1bb	-0.23902027
105	0xbdafcab0	-0.085835814
106	0x3dbf6229	0.093448944
107	0xbcf8b55e	-0.03035992
108	0xbf08eff4	-0.5349114
109	0xbdab9473	-0.08377924
110	0xbe54d70d	-0.2078516
111	0xbe0b2643	-0.13588814
112	0x3d2e850a	0.042607345
113	0x3cb4aec3	0.02205599
114	0xbd9a0e62	-0.075222746
115	0xbcfe096a	-0.031010348
116	0xbd862fb3	-0.06552067
117	0xbee2ea8d	-0.44319573
118	0xbec2a497	-0.38016197
119	0xbdef51b4	-0.116855055
120	0xbde7f567	-0.11326104
121	0xbb71d62b	-0.0036901336
122	0x3c807588	0.015681043
123	0xbe61706b	-0.2201554
124	0xbef37d26	-0.47556418
125	0xbe9e4671	-0.30913118
126	0x3d699e35	0.057035644
127	0x3e1ef796	0.15524134
128	0x3d69b385	0.05705597
129	0x3d89bbb9	0.067252584
130	0x3dc08692	0.09400667
131	0x3df8c80e	0.121475324
132	0xbdf06fc7	-0.1174007
133	0xbdedc7be	-0.116103634
134	0x3cfb8b29	0.030706005
135	0xbea70887	-0.32623693
136	0xbe85eacf	-0.26155707
137	0xbece4e22	-0.40293986
138	0xbdc78793	-0.097426556
139	0xbdc05457	-0.093910865
140	0xbd8e1d83	-0.06939223
141	0xbe9a6c81	-0.30160907
142	0xbebede7c	-0.37279117
143	0xbed2d2a2	-0.41176325
144	0xbd382361	-0.044955615
145	0xbe90f873	-0.28314552
146	0xbe7aaf1a	-0.24480858
147	0x3e355e63	0.17711787
148	0xbe64fa43	-0.22361092
149	0xbe54210a	-0.20715728
150	0xbd657412	-0.056018896
151	0xbea1934f	-0.315577
152	0xbe3e6210	-0.18592095
153	0xbeba27e9	-0.36358574
154	0xbeaae81c	-0.3338021
155	0xbe9a1ed5	-0.30101648
156	0xbe3270ad	-0.17425795
157	0x3eb45ce4	0.3522712
158	0xbe74cfc5	-0.23907383
159	0x3bc11361	0.0058922027
160	0xbe131c55	-0.14366277
161	0xbe4267f7	-0.18984972
162	0x3e0b8673	0.13625507
163	0x3e6d0950	0.23148084
164	0xbda3ecd2	-0.08004154
165	0xbe92024c	-0.28517377
166	0x3d1c58a7	0.038170483
167	0xbeabb4c8	-0.33536363
168	0x3eeae510	0.45877886
169	0x3d90b615	0.070659794
170	0x3cd1436a	0.02554484
171	0xbda81dab	-0.08208784
172	0x3d4e7c4d	0.05041151
173	0x3d9df925	0.07713536
174	0xbce9a0e1	-0.028519096
175	0xb886373a	-6.399905e-05
176	0xbe61418f	-0.21997665
177	0xbd28a52f	-0.041173156
178	0xbe37e10f	-0.17956947
179	0xbd3d8260	-0.046266913
180	0xbe5d95f7	-0.21639238
181	0xbe3bdb94	-0.18345481
182	0xbe4f62d0	-0.20252538
183	0xbe66fb60	-0.2255683
184	0xbc8b4010	-0.01699832
185	0x3d210b0f	0.039317187
186	0x3cc6d1bf	0.024269937
187	0xbd81557a	-0.063151315
188	0xbd641101	-0.05568028
189	0xbec5cd77	-0.3863332
190	0xbe12bb55	-0.14329274
191	0xbe9ce2ad	-0.3064169
192	0xbd1de65a	-0.03854976
193	0xbe1aedff	-0.15129851
194	0x3defcf9e	0.11709522
195	0x3d141567	0.036153223
196	0xbe5ce926	-0.21573314
197	0xbc87d775	-0.01658223
198	0xbc87bed9	-0.016570495
199	0x3e4f5c72	0.20250109
200	0xbd76942f	-0.060199913
201	0xbdab1ed8	-0.08355492
202	0xbdb90d65	-0.09035758
203	0x3c7eeca7	0.015559352
204	0xbe28d233	-0.16486435
205	0xbe7c442e	-0.24635383
206	0xbe1792bc	-0.14802068
207	0x3ce433e6	0.027856778
208	0xbd2ff520	-0.04295838
209	0x3e9509a2	0.29108912
210	0xbe8cb52f	-0.27481982
211	0xbe3f36f4	-0.18673307
212	0xbe9c1614	-0.30485594
213	0x3e553614	0.2082141
214	0xbe48b8a8	-0.19601691
215	0xbe8a10ee	-0.2696604
216	0xbd006934	-0.03135033
217	0xbe0554b0	-0.13020587
218	0xbd600f33	-0.054701995
219	0xbe12eb6e	-0.14347622
220	0xbe097892	-0.134249
221	0xbe93b2dd	-0.288474
222	0xbb970c42	-0.0046096155
223	0xbe039cd8	-0.128528
224	0xbd9c48f6	-0.07631104
225	0x3e07caaf	0.13260911
226	0x3e5a90e7	0.21344338
227	0x3e1242df	0.14283322
228	0xbd3ec42e	-0.04657381
229	0xbd4e5575	-0.050374467
230	0x3e05bde6	0.13060722
231	0xbe3862fe	-0.18006513
232	0x3e172b4c	0.1476261
233	0x3d2a2ed0	0.04154855
234	0xbcca180a	-0.024669666
235	0x3d3e2ddf	0.046430465
236	0xbc83d537	-0.01609288
237	0x3d131262	0.035906203
238	0xbdbfae80	-0.09359455
239	0x3b888160	0.0041658133
240	0xbde9b2a1	-0.11411024
241	0xbe7454f2	-0.23860529
242	0xbe20dfe2	-0.15710405
243	0x3be43a52	0.00696496
244	0xbe47dcc9	-0.19517817
245	0x3df12caa	0.11776097
246	0xbe273e1b	-0.16332285
247	0xbd390c02	-0.045177467
248	0x3ed8439b	0.4223908
249	0xbe3d5554	-0.18489581
250	0xbe96a359	-0.294215
251	0xbe586e26	-0.21135768
252	0xbd8b6881	-0.06807042
253	0xbdefe5d6	-0.117137596
254	0x3d062abd	0.032755602
255	0xbdbda794	-0.092604786

conv3.bias f4 [64]
0	0xbdf8f4ec	-0.1215609
1	0x3df2a3ed	0.118476726
2	0xbe808562	-0.25101763
3	0x3d0bff6a	0.03417913
4	0xbe0ee438	-0.13954246
5	0xbd655379	-0.05598781
6	0x3dc949ef	0.09828555
7	0xbe4af9a3	-0.19821791
8	0xbe7999f7	-0.24375139
9	0xbebdb409	-0.37051418
10	0xbe663472	-0.22480944
11	0xbecea59c	-0.40360725
12	0xbe15b30e	-0.14619085
13	0x3d021ad6	0.031763874
14	0xbe453895	-0.19259866
15	0xbe980460	-0.29690838
16	0xbe6f6c1e	-0.23381087
17	0x3e4dcec1	0.20098402
18	0xbe50765d	-0.20357652
19	0xbdcce5e0	-0.10004783
20	0xbd92916f	-0.071566455
21	0xbe8d6d77	-0.27622578
22	0xbe7af2f9	-0.24506749
23	0xbe84c7b1	-0.25933602
24	0xbe3a12e3	-0.18171267
25	0xbebd4316	-0.36965245
26	0xbd4e854c	-0.05042009
27	0xbe2666e6	-0.1625019
28	0xbe56fcaa	-0.20994821
29	0x3d838467	0.06421738
30	0xbe850283	-0.2597848
31	0xbe6fc95e	-0.23416659
32	0xbe9d8313	-0.30764064
33	0xbdceafe4	-0.10092142
34	0xbdf4e7ad	-0.11958251
35	0xbe9ffcd3	-0.31247577
36	0xbe41894d	-0.18900032
37	0xbe71a58d	-0.23598309
38	0xbd9403bd	-0.072272755
39	0xbe9fbc2e	-0.31198257
40	0xbe80234a	-0.25026923
41	0xbc71a8e4	-0.014749739
42	0xbee2586d	-0.4420809
43	0xbe54549e	-0.20735404
44	0xbe89003e	-0.26757997
45	0xbe934428	-0.28762937
46	0x3d1d2190	0.038362086
47	0xbe127cb8	-0.14305389
48	0xbe4246df	-0.18972348
49	0xbdb53170	-0.0884732
50	0xbe3be362	-0.18348458
51	0xbe518771	-0.20461823
52	0xbe64c543	-0.22340874
53	0xbe437cfe	-0.1909065
54	0xbe61be9e	-0.22045371
55	0xbde3a92c	-0.11116251
56	0xbd843c02	-0.06456758
57	0xbe2726d5	-0.16323407
58	0xbe928feb	-0.28625426
59	0xbe6c90c8	-0.23102105
60	0xbcb81a4c	-0.022473477
61	0xbeeb3dd2	-0.45945603
62	0xbe1ca4dd	-0.15297265
63	0xbd85d860	-0.06535411

conv4.weight f4 [128, 64, 3]
0	0xbdaa375c	-0.0831134
1	0xbd031785	-0.03200485
2	0xbd37d1ea	-0.044877924
3	0xbea990f5	-0.33118406
4	0xba5e0ab1	-0.0008470221
5	0xbdbe1571	-0.092814334
6	0xbcf4868f	-0.029849319
7	0xbd986219	-0.07440586
8	0x3cd391ed	0.025826419
9	0xbe2e3dbf	-0.17015742
10	0xbec840d8	-0.39111972
11	0xbea8412c	-0.32862222
12	0xbe12d79f	-0.14340065
13	0xbdaf093e	-0.08546685
14	0xbdf7b6a3	-0.12095382
15	0xbc182586	-0.00928629
16	0xbd8050d3	-0.06265416
17	0xbd49ca7d	-0.049265373
18	0xbe54f93b	-0.20798199
19	0xbdee07de	-0.11622594
20	0xbdb51dd3	-0.08843579
21	0xbe0271f9	-0.1273879
22	0xbd109292	-0.03529603
23	0xbe25cba9	-0.16190971
24	0x3ce41568	0.027842239
25	0xbd934b6e	-0.071921214
26	0xbd1b0d41	-0.037854437
27	0xbe12b29c	-0.14325947
28	0x3dadde52	0.0848967
29	0xbdf584fd	-0.11988256
30	0x3d92a525	0.07160405
31	0xbc6c189b	-0.014410163
32	0xbd3a36ff	-0.045462605
33	0xbd759c31	-0.05996341
34	0xbda5f861	-0.08104015
35	0xbccd4b06	-0.025060188
36	0xbdf29a95	-0.118458904
37	0xbc9e7ffc	-0.019348137
38	0xbd021e60	-0.03176725
39	0xbe362127	-0.17786084
40	0xbd2be80e	-0.04196935
41	0xbcf8afd1	-0.030357273
42	0xbe015a1c	-0.1263203
43	0xbdc86445	-0.0978475
44	0xbda398ef	-0.07988154
45	0x3a32ab30	0.000681567
46	0xbd3bbde4	-0.04583539
47	0xbd371d3f	-0.044705626
48	0x3c087a17	0.00832989
49	0xbb7e03c1	-0.0038759562
50	0xbd797791	-0.060905043
51	0xbc6620be	-0.014045892
52	0x3d59ec1c	0.053203687
53	0x3cd9cf71	0.026588174
54	0xbdd1621f	-0.10223793
55	0xbe28155e	-0.16414401
56	0x3c8e76e6	0.01739068
57	0xbd9106b0	-0.07081354
58	0xbc72434b	-0.014786552
59	0xbd85e5c7	-0.06537967
60	0xbd3cdcec	-0.046109125
61	0xbe1e865e	-0.15480945
62	0x3b5732d5	0.0032836695
63	0x3d8edbd9	0.06975526
64	0xbd4f878b	-0.050666373
65	0xbce48c31	-0.02789888
66	0xbcb7ded8	-0.022445127
67	0xbd9066a4	-0.07050827
68	0x3a8f5893	0.0010936431
69	0xbcdea5ed	-0.027178729
70	0xbd8d2e38	-0.06893581
71	0x3d5bffdc	0.053710803
72	0xbd90a5b9	-0.07062859
73	0xbcdb5cc9	-0.026777642
74	0xbd088af8	-0.033335656
75	0xbdb4cf82	-0.088286415
76	0xbe1d821d	-0.15381666
77	0xbe07b1e5	-0.13251455
78	0x3b765b78	0.003759114
79	0xbe294e69	-0.16533817
80	0xbde1f081	-0.110322006
81	0xbd338b72	-0.043834157
82	0xbd8b6b97	-0.068076305
83	0xbe4baa4e	-0.19889185
84	0x3c919dab	0.017775377
85	0xbce2a654	-0.027667202
86	0xbdcccf11	-0.10000432
87	0xbb05bfe0	-0.0020408556
88	0xbe157e33	-0.14598922
89	0xbd97d404	-0.07413486
90	0x3dfde714	0.1239759
91	0x3d0b4aa9	0.03400675
92	0x3cec4db3	0.028845644
93	0xbe0cd8ec	-0.13754624
94	0xbdd28262	-0.10278775
95	0xbda13ac6	-0.07872538
96	0xbd228f86	-0.039687656
97	0xbb8d95b9	-0.004320827
98	0xbd18e50e	-0.03732782
99	0xbe0b8b2b	-0.13627307
100	0xbdf5dbae	-0.12004791
101	0xbe856d47	-0.26059934
102	0xbdecc1bc	-0.115603894
103	0xbe416e9f	-0.18889855
104	0xbe70110f	-0.23444007
105	0xbe212e90	-0.15740418
106	0xbd88a9b8	-0.06672996
107	0xbda2a30f	-0.07941257
108	0xbd4f5527	-0.050618317
109	0xbd982dbb	-0.074305974
110	0x3c9ca0ba	0.01911961
111	0x3c808d79	0.01569246
112	0xbd695725	-0.056967873
113	0x3d09da24	0.0336553
114	0xbcdd29b9	-0.026997434
115	0xbd7d8292	-0.0618921
116	0x3d85bd2c	0.06530222
117	0xbb231d8e	-0.0024889442
118	0x3de79a0c	0.11308679
119	0xbd1643d6	-0.036685787
120	0xbc2f080b	-0.01068307
121	0xbce5677d	-0.028003449
122	0x3bf1a7a1	0.0073747193
123	0xbd13273b	-0.035926085
124	0xbc732a32	-0.014841603
125	0xbb8194b7	-0.003954496
126	0x3dd53290	0.10410035
127	0xbdc7dccf	-0.09758913
128	0x3cc97ec1	0.024596574
129	0xbd644e60	-0.055738807
130	0xbdd85382	-0.10562803
131	0xbd8bd3d1	-0.0682751
132	0x3cc7b47b	0.024378052
133	0x3dc5bb0c	0.09654817
134	0xbde80644	-0.1132932
135	0xba22185b	-0.0006183439
136	0xbdb5f29e	-0.08884166
137	0x3dad9a65	0.08476714
138	0xbe4e755c	-0.20161957
139	0xbe478e69	-0.19487919
140	0xbe4eb8db	-0.20187704
141	0x3cbaa975	0.022785882
142	0xbc41e879	-0.011835211
143	0xbd8a3d75	-0.06750003
144	0xbab51c36	-0.0013817612
145	0xbd87c087	-0.066285186
146	0xbd969620	-0.07352853
147	0xbda698ee	-0.08134638
148	0xbd137c66	-0.036007307
149	0xbdefab13	-0.11702552
150	0x3dfe2644	0.12409642
151	0x3d85bf0d	0.06530581
152	0xbd5cd3b4	-0.053912833
153	0xbe1914ec	-0.14949387
154	0xbeccff08	-0.40038323
155	0xbe6206ff	-0.22072981
156	0x3db12398	0.08649367
157	0x3d6111b2	0.054948516
158	0xbe208dab	-0.15679042
159	0xbe199dc7	-0.15001594
160	0xbde28e90	-0.11062348
161	0xbd75f93b	-0.060052138
162	0xbb825515	-0.0039774277
163	0xbe0c987f	-0.13730048
164	0xbe030126	-0.12793407
165	0xbd88e970	-0.0668515
166	0xbd8a9da9	-0.067683525
167	0xbdd3f010	-0.10348523
168	0x3ca1835f	0.019715963
169	0x3d88f7ec	0.06687912
170	0x3dcba1a4	0.0994294
171	0xbd036c91	-0.03208596
172	0xbd9b4eb3	-0.0758337
173	0x3d21f7b6	0.039542876
174	0xbda8d4e9	-0.082437344
175	0xbd06bcc8	-0.03289488
176	0xbd43a49a	-0.0477644
177	0x3cc3b427	0.023889614
178	0xbd836875	-0.06416408
179	0x3d2d5495	0.04231699
180	0xbde8d484	-0.11368659
181	0xbe21a0c7	-0.15783988
182	0xbe2a24f4	-0.16615659
183	0xbe125551	-0.14290358
184	0xbb8ce57a	-0.0042998167
185	0x3d19da4f	0.03756171
186	0xbd3916b1	-0.045187656
187	0xbcf97d14	-0.03045515
188	0xbe2edf87	-0.17077456
189	0xbdca18c2	-0.098680034
190	0xbd948e60	-0.072537184
191	0xbc3f959b	-0.011693384
192	0xbe200e90	-0.15630555
193	0x3c2d502f	0.010578199
194	0xbe0abc34	-0.13548356
195	0x3c1a25d7	0.009408436
196	0x3df92575	0.121653475
197	0xbd01afd9	-0.031661842
198	0xbdb7dc2e	-0.08977543
199	0xbb4a5f4c	-0.0030879555
200	0x3df91a50	0.12163222
201	0xbe889c8e	-0.26681942
202	0xbeaf08f6	-0.34186524
203	0xbe943fe1	-0.28954986
204	0xbda02763	-0.078200124
205	0xbd8bbda4	-0.068232805
206	0xbda4ee55	-0.08053271
207	0x3e23809f	0.15967034
208	0x3c8a73a1	0.01690084
209	0xbc780f33	-0.0151403425
210	0xbdc32f07	-0.09530454
211	0x3e4b5e60	0.1986022
212	0x3e38df50	0.18053937
213	0x3b423145	0.0029631418
214	0x3ca0d5b5	0.019633153
215	0x3e727c54	0.2368024
216	0xbdd1c6a9	-0.102429695
217	0xbd5cac60	-0.053875327
218	0xbe173943	-0.14767937
219	0xbd9ddd26	-0.07708196
220	0xbb49c079	-0.0030784889
221	0x3d0e4ff4	0.034744218
222	0xbd40e63b	-0.047094565
223	0xbe5d9cd1	-0.21641852
224	0xbe269a78	-0.16269863
225	0xbdbd5aa1	-0.09245802
226	0x3e09ae1c	0.13445324
227	0x3e19b2c1	0.15009595
228	0xbc9af7ba	-0.018916953
229	0xbca9f831	-0.02074823
230	0xbdf97183	-0.12179854
231	0xbe6c957b	-0.23103897
232	0xbd3ed50d	-0.0465899
233	0xbe89b474	-0.26895487
234	0xbcef3b92	-0.02920321
235	0xbdc658ae	-0.09684883
236	0x3e3644d8	0.177997
237	0xbda19896	-0.078904316
238	0xbdb1e968	-0.08687097
239	0x3e1015fe	0.1407089
240	0xbd9b3c1a	-0.07579823
241	0xbd9ef572	-0.07761659
242	0xbd7dcb89	-0.061961684
243	0x3ec0cc8e	0.37656063
244	0x3eaa39b4	0.3324715
245	0x3eba5bdb	0.36398205
246	0xbd58e95d	-0.052956928
247	0xbc85330c	-0.016259693
248	0xbcebb208	-0.028771415
249	0xbce9a152	-0.028519306
250	0xbdfce7fe	-0.123489365
251	0x3e7f6a57	0.24942909
252	0xbe065cc2	-0.13121322
253	0x3ce1522b	0.027505001
254	0xbe180dc3	-0.14849
255	0x3d3acab1	0.045603458

conv4.bias f4 [128]
0	0xbe57161c	-0.21004528
1	0xbe099bb3	-0.13438301
2	0xbe95d846	-0.29266566
3	0xbe88f0e0	-0.26746273
4	0xbec98654	-0.39360297
5	0xbec2b943	-0.38031968
6	0xbdad9d47	-0.08477264
7	0xbea69ac2	-0.32539946
8	0xbe481e16	-0.19542727
9	0xbea155de	-0.31510824
10	0xbdbc6295	-0.091984905
11	0xbe67b81e	-0.22628829
12	0xbe5346ee	-0.20632526
13	0xbdbd7b84	-0.09252074
14	0xbe121596	-0.14266047
15	0xbe2038ea	-0.15646711
16	0xbd34fcdf	-0.04418647
17	0xbe9c4e2f	-0.305284
18	0xbeb6e391	-0.35720494
19	0xbe9da67b	-0.30791077
20	0xbe40258c	-0.18764323
21	0xbeca0be3	-0.39462194
22	0xbdec2c6f	-0.115319125
23	0xbe17ad8d	-0.14812298
24	0xbd7a9a37	-0.061182227
25	0xbea89241	-0.32924083
26	0xbe6a74da	-0.22896138
27	0xbe822712	-0.25420433
28	0xbe8867f0	-0.26641798
29	0xbe7fa1ba	-0.24964038
30	0x3cd49f0c	0.025954746
31	0xbe351771	-0.17684723
32	0xbde13862	-0.10997082
33	0xbe7b5f39	-0.24548043
34	0xbe378dd9	-0.17925204
35	0xbe5a2f85	-0.2130719
36	0xbe9594d6	-0.29215115
37	0xbecf2cff	-0.40464017
38	0xbdf15ded	-0.11785493
39	0xbdf27a4d	-0.11839733
40	0xbe6e6ce4	-0.23283726
41	0xbd925287	-0.07144647
42	0xbddd4155	-0.10803477
43	0xbe3cd497	-0.18440472
44	0xbe2bcea8	-0.16778052
45	0xbeab6e4b	-0.33482584
46	0xbeae1c6f	-0.34006068
47	0xbe58e978	-0.21182811
48	0xbecc65c1	-0.39921382
49	0xbdb60f2f	-0.08889615
50	0xbe01b27e	-0.12665746
51	0xbe0e943c	-0.13923734
52	0xbefd85c0	-0.49516106
53	0xbddadc73	-0.106865786
54	0xbee5f141	-0.44910625
55	0xbe44320b	-0.19159715
56	0xbe1d7130	-0.15375209
57	0xbdb184fc	-0.08667943
58	0xbeae57e7	-0.3405144
59	0xbe31c8a1	-0.1736169
60	0xbe9039c2	-0.28169066
61	0xbe21b655	-0.1579221
62	0xbec082f6	-0.37599915
63	0xbe8f8bb3	-0.2803627
64	0xbe129d73	-0.14317875
65	0xbe57d361	-0.21076728
66	0xbbd36ab0	-0.006451927
67	0xbd3a37b1	-0.045463268
68	0xbe3a39d9	-0.1818613
69	0xbe97d572	-0.29655033
70	0xbdcf181e	-0.10112022
71	0xbdc95de8	-0.09832364
72	0xbdadde42	-0.08489658
73	0xbed76ed6	-0.4207675
74	0xbea08729	-0.3135312
75	0xbeb07344	-0.3446294
76	0xbd857f91	-0.06518472
77	0xbd82c8cd	-0.06385956
78	0xbe817ba6	-0.2528965
79	0xbee42c80	-0.445652
80	0xbe683d90	-0.22679734
81	0xbd952c9b	-0.072838984
82	0xbe3b6314	-0.18299514
83	0xbe78f1f5	-0.2431105
84	0xbe869598	-0.26286006
85	0xbd9efafc	-0.07762715
86	0xbe41db3f	-0.18931292
87	0xbe516028	-0.20446837
88	0xbdcea436	-0.100899145
89	0xbe024919	-0.12723197
90	0xbe0dc308	-0.1384393
91	0xbe7bf22e	-0.24604103
92	0x3c8a369e	0.016871747
93	0x3b49d39e	0.00307963
94	0xbe421c81	-0.18956186
95	0xbd17ee3a	-0.037092425
96	0xbeb0cba1	-0.34530357
97	0xbe9c9fdd	-0.30590716
98	0xbcf2e8a0	-0.02965194
99	0xbe03c117	-0.12866627
100	0xbe938a33	-0.28816375
101	0xbe1d73ce	-0.15376207
102	0xbdea0280	-0.11426258
103	0xbedf797d	-0.43647376
104	0xbe13d33d	-0.1443605
105	0xbdd176a0	-0.10227704
106	0xbec675ed	-0.38761845
107	0xbe8fa368	-0.28054357
108	0xbdd9bcc4	-0.10631707
109	0xbdd1aa50	-0.10237563
110	0xbd25c209	-0.04046825
111	0xbe6a813b	-0.2290086
112	0xbe9e9f1b	-0.30980763
113	0xbe568476	-0.20948967
114	0xbd10fad7	-0.03539547
115	0xbe2984d1	-0.16554572
116	0xbe69999c	-0.22812504
117	0xbedd7479	-0.43252924
118	0xbe1fa0bb	-0.15588658
119	0xbe4fabe2	-0.20280412
120	0xbdedbdc7	-0.11608463
121	0xbd33f5af	-0.043935474
122	0xbea90a89	-0.3301585
123	0xbe1a58e3	-0.1507297
124	0xbdaaf1ba	-0.08346887
125	0xbec617d0	-0.38690042
126	0xbeb78ffe	-0.35852045
127	0xbe308448	-0.17237961

fc1.weight f4 [120, 512]
0	0xbe3230fd	-0.174015
1	0xbe0fd88a	-0.14047447
2	0xbdd86b47	-0.105673365
3	0xbe1cda6a	-0.15317693
4	0x3e3c6377	0.18397318
5	0x3e466d38	0.19377601
6	0x3e19097f	0.14945029
7	0x3e8cb9aa	0.274854
8	0xbd91713f	-0.07101678
9	0xbd0452fb	-0.0323057
10	0x3d6859ff	0.056726452
11	0xbd495a4c	-0.04915838
12	0xbbc8abdd	-0.0061240033
13	0xba190554	-0.0005837281
14	0xbcc92af4	-0.024556614
15	0xb8ee80fc	-0.000113727496
16	0xbc924390	-0.017854482
17	0x3d770a84	0.060312763
18	0x3dff97ad	0.12480102
19	0x3dc47687	0.0959292
20	0xbe199dd8	-0.15001619
21	0xbe246299	-0.16053237
22	0xbc243ccf	-0.0100242635
23	0xbe8f8f19	-0.28038862
24	0x3d4eb499	0.0504652
25	0x3d89dfec	0.06732163
26	0x3de0067f	0.10938739
27	0x3ca342ef	0.019929377
28	0xbdb2f3f6	-0.08737938
29	0x3daaa3e2	0.083320394
30	0x3baec15c	0.005333109
31	0xbd4cfd41	-0.05004621
32	0xbd932604	-0.07184985
33	0xbcb0ad44	-0.021566994
34	0xbd836847	-0.06416374
35	0xbd999088	-0.0749827
36	0xbda2e7f1	-0.079543956
37	0xbcdcf559	-0.02697246
38	0xbdc31f99	-0.09527511
39	0x3ccfc408	0.02536203
40	0xbb8a4ded	-0.0042207153
41	0xbd25d791	-0.040488783
42	0xbd076c0b	-0.033062022
43	0x3cad185e	0.021129783
44	0xbd905a9f	-0.070485346
45	0xbe0f6382	-0.14002803
46	0xbdf0e9dd	-0.11763356
47	0xbcf83d4c	-0.030302666
48	0x3de4510b	0.1114827
49	0x3c0c466d	0.008561713
50	0x3cab4ffb	0.020912161
51	0x3da7c2f0	0.08191478
52	0xbd82ec95	-0.06392781
53	0xbdde046c	-0.10840687
54	0x3c622013	0.013801592
55	0x3eaa1fb1	0.33227304
56	0xbc25bfab	-0.010116498
57	0x3d239a6d	0.039942194
58	0x3e1747e3	0.14773516
59	0xbda8b789	-0.082381316
60	0xbe017ebd	-0.12646003
61	0xbe17e928	-0.14835036
62	0xbdf90ee6	-0.12161045
63	0xbda0bdcd	-0.078487016
64	0xbeba7a42	-0.364214
65	0xbeb9f9e1	-0.36323455
66	0xbe7ab1dc	-0.2448191
67	0xbe580ec7	-0.21099387
68	0x3c8ad001	0.016944887
69	0x3d66fda6	0.05639424
70	0x3e17662e	0.14785072
71	0x3ecb6036	0.3972184
72	0x3db08885	0.08619789
73	0x3da89ea7	0.082333855
74	0xbe2a5bb2	-0.16636541
75	0x3d95c4d1	0.073129304
76	0xbd29adc3	-0.041425478
77	0xbd3631e4	-0.044481173
78	0xbd208634	-0.039190486
79	0x3d8e5c8f	0.06951248
80	0xbd89504c	-0.067047685
81	0xbd459d72	-0.048245855
82	0xbddace46	-0.10683875
83	0x3d58a0d4	0.052887753
84	0xbdd1d967	-0.10246544
85	0xbde8a600	-0.11359787
86	0xbdd5713c	-0.10421988
87	0x3d5935df	0.05302989
88	0xbe462107	-0.19348536
89	0xbe3b1bd9	-0.18272342
90	0xbe65c5e7	-0.22438775
91	0xbe534b78	-0.20634258
92	0xbd8c1bee	-0.06841265
93	0xbdbbcf31	-0.09170378
94	0xbd4622bf	-0.04837298
95	0xbd94f88b	-0.07273968
96	0x3d95c499	0.07312889
97	0xbd475e95	-0.048674185
98	0xbe22819d	-0.15869756
99	0x3d46f248	0.0485709
100	0xbc1f38e8	-0.009718157
101	0x3e6c0d81	0.23052026
102	0x3e2eb2f3	0.17060451
103	0x3dbd3feb	0.09240707
104	0xbc0b97c9	-0.008520075
105	0xbda8ae25	-0.082363404
106	0xbddde95a	-0.10835524
107	0x3c18cccf	0.009326174
108	0xbe1b8ff1	-0.15191628
109	0xbda1e327	-0.07904654
110	0xbdd349e2	-0.103168264
111	0xbdd1f828	-0.1025241
112	0xbd330c55	-0.043712933
113	0xbd486493	-0.04892404
114	0x3d768beb	0.06019203
115	0xbd5eacd1	-0.05436403
116	0xbd56d69a	-0.052450754
117	0xbd0f4b0e	-0.034983687
118	0xbdb72e16	-0.08944337
119	0xbdae1052	-0.084992066
120	0x3e01847f	0.126482
121	0x3d60a299	0.054842565
122	0x3da50a6d	0.08058629
123	0x3e18f983	0.14938931
124	0x3d06da05	0.032922763
125	0xbd3425b2	-0.04398126
126	0x3d2815f3	0.041036557
127	0xbd2c84b9	-0.04211876
128	0xbc1d7f0b	-0.009612809
129	0xbb47be14	-0.0030478286
130	0xbcf314e1	-0.029673042
131	0xbd2f8e5d	-0.042860378
132	0x3ba44503	0.0050131097
133	0xbcaf9cd5	-0.021437088
134	0x3ced5079	0.028969036
135	0xbc9d6bd7	-0.019216461
136	0xbdccb451	-0.0999533
137	0xbdcee1ec	-0.10101685
138	0xbd80a50f	-0.062814824
139	0xbd495d76	-0.049161397
140	0x391c926f	0.0001493187
141	0x3cb058dd	0.021526748
142	0x3d05e671	0.03269047
143	0xbabac3f5	-0.0014249074
144	0xbd93fdbc	-0.0722613
145	0xbd1ffe24	-0.039060727
146	0xbd402f28	-0.04691997
147	0x3bf40ef8	0.0074480735
148	0xbd3f6cf1	-0.046734754
149	0xbd28353d	-0.041066397
150	0x3c7ca1d8	0.015419446
151	0xbc444b47	-0.011980838
152	0xbd3d01c9	-0.04614428
153	0xbe4f71e8	-0.20258296
154	0xbe3d0094	-0.18457252
155	0xbe401f5a	-0.1876196
156	0xbccae865	-0.024769017
157	0xbd4799eb	-0.048730772
158	0xbd186181	-0.037202362
159	0x3d0c4d4c	0.034253404
160	0xbe0ed601	-0.13948824
161	0xbdfe1e0b	-0.12408074
162	0xbdd735dd	-0.105083205
163	0xbe016094	-0.12634498
164	0xbdb58ac7	-0.0886436
165	0xbdf84fdb	-0.12124606
166	0xbe25f2b7	-0.1620587
167	0xb87c30dc	-6.0126986e-05
168	0x3e308449	0.17237963
169	0x3e195763	0.14974742
170	0x3e3cd5ff	0.18441008
171	0x3e18c186	0.14917573
172	0xbd922723	-0.07136371
173	0xbde0da53	-0.10979142
174	0xbd9b20f9	-0.075746484
175	0xbdf26097	-0.11834829
176	0xbd28f1e4	-0.04124631
177	0x3e15da07	0.14633952
178	0x3e06163b	0.13094418
179	0xbd1c694d	-0.03818636
180	0xbe05778b	-0.13033883
181	0xbe0e56d1	-0.13900305
182	0xbdb6877e	-0.08912562
183	0xbdc13da2	-0.09435584
184	0xbbdcb3e0	-0.00673531
185	0xbb3c8a8a	-0.00287691
186	0x3c4711fe	0.012150286
187	0x3e5c713d	0.21527572
188	0x3cbf5f5b	0.023360899
189	0x3b0e7177	0.002173511
190	0xbc6a3f8c	-0.014297377
191	0x3d134f86	0.03596451
192	0xbe49f39e	-0.19721839
193	0xbdd898e5	-0.10576037
194	0xbd917262	-0.07101895
195	0xbc38ac64	-0.01127157
196	0xbecf04d3	-0.40433368
197	0xbf0b72f6	-0.5447229
198	0xbf03f9b8	-0.51552916
199	0xbf0ed195	-0.55788547
200	0x3dbeb6a8	0.09312183
201	0x3d99ea6a	0.07515414
202	0xbd2f596a	-0.04280988
203	0xbd34b75d	-0.04412018
204	0xbf091347	-0.5354504
205	0xbece41cb	-0.4028457
206	0xbe06adac	-0.13152188
207	0x3d8e635d	0.06952546
208	0xbe2e5ffa	-0.170288
209	0xbdf16ec3	-0.11788704
210	0xbd4217bf	-0.047385927
211	0xbe034b3c	-0.12821668
212	0xbddbdf5a	-0.1073596
213	0xbe550d6e	-0.20805904
214	0xbb5bb7b6	-0.0033526248
215	0xbe49ae42	-0.1969538
216	0xbc81ad84	-0.015829809
217	0xbca9cdff	-0.02072811
218	0xbda95bb7	-0.08269446
219	0xbd13f9c9	-0.036126886
220	0xbdb7a5ad	-0.08967147
221	0xbda5bd3b	-0.080927335
222	0xbde807ef	-0.11329638
223	0xbdf22de5	-0.1182516
224	0x3cc482c6	0.023988139
225	0xbd1e18e9	-0.038597975
226	0xbc2a2def	-0.010386928
227	0xbd28b3a5	-0.041186947
228	0xbd60de94	-0.054899767
229	0x3c19f9db	0.009397949
230	0xbd474239	-0.04864714
231	0xbcd14d2b	-0.025549492
232	0xbc07b836	-0.008283665
233	0xbd661f72	-0.056182332
234	0x3e03eea0	0.12883997
235	0xbd8a86a3	-0.06763961
236	0xbd01f678	-0.03172919
237	0xbb7cbcc6	-0.0038564666
238	0xbdb78a7f	-0.08961963
239	0x3d1f4924	0.03888811
240	0xbddf2897	-0.10896414
241	0xbe481732	-0.19540098
242	0xbe03aa16	-0.12857851
243	0xbe07ea28	-0.13272917
244	0x3d3393a8	0.043841988
245	0x3ce5e4e2	0.028063241
246	0xbc6c0e7a	-0.014407748
247	0x3d8ab889	0.067734785
248	0xbe0fbaf4	-0.1403616
249	0xbd9791c2	-0.07400848
250	0x3bf0803a	0.0073395045
251	0x3d35c92b	0.0443813
252	0xbd7491ad	-0.05970924
253	0xbd6c63ff	-0.05771255
254	0xbd012e99	-0.03153858
255	0xbb83dd87	-0.004024211

fc1.bias f4 [120]
0	0xbb3b3b4f	-0.0028569286
1	0xbe64b814	-0.22335845
2	0x3e378061	0.17920066
3	0xbe56d065	-0.20977934
4	0x3bc8dc2c	0.006129762
5	0xbe108d3c	-0.14116377
6	0xbe576abe	-0.21036813
7	0xbde49f40	-0.11163187
8	0xbe052481	-0.13002206
9	0x3ef5917b	0.47962555
10	0x3e1f0d42	0.15532401
11	0xbdab963b	-0.083782636
12	0xbd62fe2b	-0.055418175
13	0xbd2773ca	-0.04088191
14	0xbd48708a	-0.04893545
15	0xbd56d87e	-0.052452557
16	0x3f0fe9f1	0.5621634
17	0xbe066694	-0.13125068
18	0x3d3a8423	0.04553617
19	0xbd329e97	-0.043608274
20	0xbdd1755d	-0.102274634
21	0xbcc7636b	-0.024339398
22	0x3e228321	0.15870334
23	0xbdb7ffda	-0.08984347
24	0xbe3514d5	-0.17683728
25	0x3e3d6c7f	0.18498419
26	0x3dcf9f01	0.101377495
27	0x3ee2e776	0.44317216
28	0xbc2ec2fc	-0.010666605
29	0xbe1454f1	-0.14485528
30	0x3e245cac	0.16050977
31	0x3d71065f	0.058843967
32	0xbddf101e	-0.10891746
33	0xbb8ddb49	-0.0043291193
34	0xbe5a8b3b	-0.21342175
35	0xbe03a0a6	-0.12854251
36	0xbea2a0ee	-0.31763405
37	0x3d902d68	0.070399106
38	0xbe2e66e6	-0.1703144
39	0xbe5e9e42	-0.21740058
40	0xbe04c773	-0.12966709
41	0xbd7ad88d	-0.061241675
42	0xbdebab0a	-0.115072325
43	0xbde7f69a	-0.113263324
44	0xbe43c245	-0.19117077
45	0xbda6e6a0	-0.08149457
46	0xbda86955	-0.082232155
47	0xbe0d2f67	-0.13787614
48	0xbd7662bd	-0.060152758
49	0x3e61d323	0.22053199
50	0xbec942e0	-0.39308834
51	0xbe3ac85b	-0.18240492
52	0x3eaf5b87	0.34249517
53	0xbe26331d	-0.16230436
54	0xbe0bf93a	-0.13669291
55	0xbda21f86	-0.07916169
56	0xbc5a9253	-0.0133405505
57	0xbe8b0861	-0.2715483
58	0x3e06d0b8	0.13165557
59	0x3ec16e58	0.37779498
60	0xbdcdc4a7	-0.10047274
61	0xbe5080de	-0.20361659
62	0xbdd3389e	-0.10313533
63	0xbdd5c297	-0.10437506
64	0xbdeb32f0	-0.11484325
65	0xbe15437c	-0.14576524
66	0xbdd9b7bc	-0.10630748
67	0xbe0a81d7	-0.13526092
68	0xbe343f8a	-0.17602363
69	0xbdb41fc2	-0.0879512
70	0xbd2788ea	-0.040902056
71	0xbdc244f9	-0.09485812
72	0x3d9184f9	0.07105441
73	0xbdaf4c2e	-0.08559452
74	0xbe1d1b9b	-0.15342562
75	0xbd99d26c	-0.07510838
76	0xbd409a4a	-0.04702214
77	0xbc83cd38	-0.016089067
78	0xbe629227	-0.22126065
79	0xbd9338cd	-0.07188568
80	0xbd56eee6	-0.052473925
81	0xbcaffd88	-0.021483198
82	0xbe085627	-0.13314115
83	0xbe264064	-0.162355
84	0xbe46ed16	-0.19426379
85	0xbda1ee19	-0.07906742
86	0xbe423cc5	-0.18968494
87	0xbd151085	-0.036392707
88	0xbead633d	-0.33864775
89	0xbdf4f6d4	-0.11961141
90	0x3e791ef5	0.24328215
91	0x3aa01c6f	0.0012215505
92	0xbdc70ae9	-0.09718878
93	0x3e235fd7	0.15954529
94	0xbd759306	-0.059954666
95	0xbe92f534	-0.287027
96	0xbe03ea84	-0.1288243
97	0x3bec8ffb	0.0072193122
98	0xbdc9d335	-0.09854738
99	0xbd48ef1d	-0.04905616
100	0x3ea91c34	0.3302933
101	0x3cb07d41	0.0215441
102	0xbdcce2d1	-0.10004199
103	0x3bbf3dd3	0.0058362274
104	0xbd762110	-0.060090125
105	0xbdf31f3a	-0.1187119
106	0xbde275d9	-0.11057634
107	0x3dc9900b	0.09841927
108	0x3d0d0d19	0.03443632
109	0xbde2a74f	-0.11067068
110	0xbe19bce8	-0.15013468
111	0xbca90830	-0.020633787
112	0xbe5f6c30	-0.21818614
113	0xbda4bb40	-0.080435276
114	0xbe403151	-0.18768813
115	0xbe2007b0	-0.15627933
116	0xbb2ff787	-0.0026850419
117	0xbdb9543c	-0.090492696
118	0x3e083063	0.13299708
119	0xbd3c1892	-0.04592187

fc2.weight f4 [64, 120]
0	0xbe09b89c	-0.13449329
1	0x3e060db4	0.13091165
2	0xbd5318ae	-0.05153721
3	0x3cbb5e34	0.022872068
4	0x3d941311	0.07230199
5	0xbc9fabdd	-0.01949113
6	0xbd914292	-0.070927754
7	0x3d8b1e36	0.06792872
8	0xbc8e9797	-0.017406268
9	0xbe657f9a	-0.22411957
10	0xbe623160	-0.22089148
11	0x3d40577b	0.046958428
12	0xbcd1e47a	-0.025621641
13	0xbd862e46	-0.06551795
14	0xbd9ad2f7	-0.075597696
15	0x3c773657	0.015088639
16	0xbe2a8e44	-0.16655833
17	0xbdb4ba06	-0.08824544
18	0xbda95ae2	-0.08269288
19	0xbcee8639	-0.029116737
20	0xbe084784	-0.13308531
21	0xbe15771b	-0.14596216
22	0xbd467962	-0.048455603
23	0x3e2afa21	0.16696979
24	0xbbcd8a84	-0.006272616
25	0x3d66aecc	0.056319043
26	0x3e8fbfe0	0.28076077
27	0xbd2cfeb0	-0.042235076
28	0xbd87bf58	-0.06628293
29	0xbdb246d3	-0.08704915
30	0xbe3cb50c	-0.18428439
31	0xbdb644da	-0.08899851
32	0xbddfe7d1	-0.10932887
33	0xbe8a347c	-0.26993167
34	0x3e00f29a	0.12592545
35	0xbc45668c	-0.012048375
36	0xbce7aa94	-0.02827958
37	0x3dd09804	0.10185245
38	0x3d2aa753	0.04166348
39	0x3d5d49b3	0.054025363
40	0xbdbec785	-0.09315399
41	0xbcdf4068	-0.027252391
42	0xbdcb918d	-0.09939871
43	0xbdd2504f	-0.10269224
44	0x3d8c38a5	0.068467416
45	0x3d92d75a	0.07169981
46	0xbe57811b	-0.21045344
47	0xbc9a5899	-0.018841075
48	0x3dbf8dac	0.09353194
49	0x3d8e4975	0.069476046
50	0xbc9e4e8d	-0.019324565
51	0xbe2878bf	-0.16452311
52	0xbdd87e01	-0.10570908
53	0xbcb458a4	-0.022014923
54	0xbb8b191f	-0.004244938
55	0xbc60b3cb	-0.013714741
56	0xbde07376	-0.109595224
57	0xbda6942c	-0.0813373
58	0xbd40ee6e	-0.047102384
59	0xbda26976	-0.07930271
60	0xbd318017	-0.043335047
61	0x3c4def45	0.012569253
62	0x3d6016af	0.054709133
63	0x3c9d04df	0.019167362
64	0x3dd42d66	0.103602216
65	0xbe33d083	-0.1756001
66	0xbc754850	-0.014970854
67	0x3d685c5d	0.05672871
68	0x3e63f5c9	0.22261728
69	0x3d89351d	0.06699584
70	0x3d65a64d	0.0560668
71	0x3d9b51db	0.07583972
72	0xbb257d03	-0.0025251515
73	0x3d149080	0.03627062
74	0xbe0688bd	-0.13138099
75	0x3ce56625	0.028002808
76	0x3a6d1f78	0.0009045522
77	0xbd805a5f	-0.06267237
78	0x3d313fe7	0.043273833
79	0xbd266b91	-0.040629927
80	0xbd1b1701	-0.037863735
81	0x3c8df1e9	0.017327266
82	0x3d507336	0.050891124
83	0xbd8ebfea	-0.069701985
84	0xbb7ee991	-0.003889654
85	0x3d703c78	0.058651417
86	0xbdec3555	-0.1153361
87	0xbe3653be	-0.17805383
88	0xbe258a5f	-0.16166066
89	0x3bccbbaa	0.0062479572
90	0xbe86bc8f	-0.26315734
91	0xbe2110cf	-0.15729068
92	0xbd4c5a76	-0.049890958
93	0xbca809fa	-0.02051257
94	0x3e06ed21	0.13176395
95	0x3d275449	0.040851865
96	0xbd0dc799	-0.03461418
97	0xbd85909c	-0.06521723
98	0x3d048d5b	0.03236137
99	0xbd5d3c33	-0.05401249
100	0xbe00a0f8	-0.12561405
101	0x3e19d636	0.15023121
102	0xbd770dce	-0.0603159
103	0xbe101c5e	-0.14073321
104	0xbd9e699c	-0.07734987
105	0xbdbfc816	-0.09364335
106	0x3d236b3f	0.0398972
107	0xbdde44b9	-0.108529516
108	0xbdc8bdb9	-0.09801812
109	0x3d043987	0.032281425
110	0xbdd2e6ef	-0.10297953
111	0xbe0ba083	-0.13635449
112	0xbdb3d7f5	-0.08781425
113	0xbc85d420	-0.0163365
114	0xbdcc6ef2	-0.09982099
115	0xbe6e1258	-0.23249185
116	0x3e2ad74d	0.16683693
117	0x3d33c522	0.043889172
118	0xbddf2dee	-0.10897432
119	0xbd7abe5e	-0.061216705
120	0x3e0a8a5c	0.13529342
121	0xbe56146b	-0.20906226
122	0xbca6622b	-0.020310482
123	0xbd990205	-0.07471088
124	0xbdf76ef0	-0.120817065
125	0x3d440708	0.047858268
126	0xbe169436	-0.14704975
127	0x3d9e9365	0.07742957
128	0xbd9ea049	-0.07745416
129	0xbd800bb3	-0.062522314
130	0xbd3470fc	-0.044053063
131	0xbe3c7765	-0.1840492
132	0xbd0bc0b6	-0.03411933
133	0xbeaeade2	-0.34117037
134	0x3c952079	0.01820396
135	0xbd96cb8a	-0.07363041
136	0xbe837000	-0.25671387
137	0x3d7563ac	0.059909508
138	0xbf1c4bc5	-0.61053115
139	0x3d748cec	0.059704706
140	0xbd57d822	-0.052696355
141	0xbcf1123b	-0.029427638
142	0xbdfae394	-0.12250438
143	0xbd829473	-0.06375971
144	0xbe3f0a7e	-0.18656346
145	0x3ef2d958	0.47431445
146	0xbdce599d	-0.10075686
147	0x3cba06e5	0.022708366
148	0xbe423d93	-0.18968801
149	0x3db79308	0.08963591
150	0xbd409ee7	-0.04702654
151	0x3dd49f2f	0.10381924
152	0xbe765419	-0.24055518
153	0x3e2fe041	0.1717539
154	0xbd3b5696	-0.04573687
155	0xbd682824	-0.056678906
156	0x3ab4f754	0.001380662
157	0xbd47fce7	-0.04882517
158	0x3e81a962	0.2532454
159	0xbe07568f	-0.13216613
160	0xbcfafd40	-0.030638337
161	0x3b972d61	0.004613564
162	0xbe584240	-0.21119022
163	0x3e717fcb	0.23583905
164	0xbe1f3641	-0.1554804
165	0x3d86da48	0.065846026
166	0xbba98e72	-0.0051744515
167	0x3c062f1d	0.008189944
168	0x3da27014	0.079315335
169	0x3ec200a4	0.37891114
170	0x3deae0fd	0.11468694
171	0x3daf5f27	0.08563071
172	0xbde7e178	-0.113223016
173	0xbd6ef2f0	-0.058337152
174	0x3d5dda88	0.054163486
175	0x3d8d61ec	0.06903443
176	0x3a02ba51	0.000498687
177	0xbe6f2f5c	-0.2335791
178	0xbbf6b2a8	-0.0075286217
179	0x3d67ef6e	0.056624822
180	0xbd3aa100	-0.045563698
181	0xbd76b648	-0.06023243
182	0x3d849ecb	0.064756
183	0xbe268857	-0.16262947
184	0x3d4709a5	0.048593182
185	0x3e9265da	0.28593332
186	0xbd5e823e	-0.054323427
187	0xbd976071	-0.073914416
188	0xbd3b4430	-0.045719326
189	0xbd30ba94	-0.043146685
190	0x3d158fbf	0.03651404
191	0xbdcea083	-0.10089209
192	0x3e2d097a	0.16898146
193	0xbca48521	-0.020083012
194	0xbd1170c2	-0.035507925
195	0xbd86a086	-0.06573586
196	0x3d80841d	0.062751986
197	0xbd083732	-0.033255763
198	0x3e4fec8a	0.20305076
199	0xbdc2b8cf	-0.09507906
200	0xbd1070ae	-0.03526371
201	0xbe3e6f01	-0.18597032
202	0xbd694afa	-0.05695627
203	0x3dba88c0	0.09108114
204	0x3e02a2d4	0.12757427
205	0xbcec628b	-0.028855583
206	0x3d6b0691	0.05737931
207	0x3e55bbb1	0.2087238
208	0xbd8a9a7e	-0.06767748
209	0xbd22451f	-0.0396167
210	0xbc01a139	-0.007911974
211	0x3d6a153d	0.05714916
212	0x3ca0b62e	0.01961812
213	0xbccbf0a0	-0.024895012
214	0xbc5f6053	-0.013633805
215	0x3cd0f659	0.025508093
216	0xbce4a7f0	-0.02791211
217	0xbe3bb554	-0.1833089
218	0x3dc47f56	0.095946
219	0xbcceaa2f	-0.025227634
220	0xbe13c663	-0.14431147
221	0x3e723299	0.23652114
222	0x3db7ec16	0.08980577
223	0xbdcb18f1	-0.099168666
224	0xbbfc4320	-0.0076984316
225	0x3dddab4f	0.1082369
226	0x3e006f67	0.12542497
227	0x3de3e744	0.11128095
228	0x3d4c030f	0.049807604
229	0xbe235738	-0.1595124
230	0xbd4344ae	-0.04767292
231	0xbe424823	-0.1897283
232	0x3e605a59	0.21909465
233	0xbeb2af13	-0.34899196
234	0x3dbfee5f	0.093716376
235	0x3e521423	0.20515494
236	0xbe93cc15	-0.2886664
237	0xbbb0a708	-0.0053910054
238	0xbd2d45f0	-0.042303026
239	0xbb9308d0	-0.0044871345
240	0xbd4daa3b	-0.050211173
241	0xbde7b190	-0.11313164
242	0xbce0cda4	-0.027441807
243	0x3e308e82	0.17241862
244	0xbe09602f	-0.13415597
245	0x3d5e34b5	0.054249484
246	0xbe4cbacb	-0.19993131
247	0xbcccda96	-0.025006574
248	0x3d0c779f	0.034293767
249	0xbdffee45	-0.12496618
250	0xbe517b97	-0.20457302
251	0xbde45c09	-0.11150367
252	0xbda4d7c9	-0.0804897
253	0xbe36a242	-0.17835334
254	0xbd6e29eb	-0.058145445
255	0xbdcbc991	-0.09950555
